TD3_UR5E_Actor.pth (torch, 286825 bytes, 6 tensors)

fc1.weight f4 [256, 13]
00000000: 0c1c f63c 0b85 903e 0f2f 5ebe d83f fabd
00000010: 671b 81bf 7e72 383f 345b a43f ba38 063f
00000020: 818e 1b3e 63e2 b6be 2548 dcbe b66f acbe
00000030: 2573 2fbd 14c5 c4be 81be f9bd c080 8cbc
00000040: a08a 653f 7d96 db3e 1186 dcbe 2b17 dcbe
00000050: dc52 2a3e 11de 9a3e 9e54 7d3f df06 2fbe
00000060: f4a6 1a3d caf6 ff3d c6e8 ec3e d49b fbbe
00000070: b53c 89be bae3 e3bd 5a2d a63e 9a94 883e
00000080: 2fb4 e83e 0fa1 8e3c 72b6 cc3d 10a3 43bf
00000090: cbac b3be 82da 803f 61cf d73d 97fd fb3d
000000a0: e4fa 8cbe 163c 04be 0c2d c73d e253 05bf
000000b0: 9e79 24bf 46c2 52bf 20ac 403e 994d 393e
000000c0: 8334 91bd 8cb2 86bd 6838 9d3f 4579 ad3e
000000d0: ab7b 8f3e 7537 743c 88da b93e 8009 6bbe
000000e0: a721 1a3a 35c4 06bf d035 51be 1000 d1bd
000000f0: f366 8b3e 4aa3 8cbe 6391 62bf 4e7c 933e
00000100: 52fd dbbd e002 573d 228c d5be d26d c93d
00000110: c7a2 873e 272e fc3e 987c a7bd f6c0 23be
00000120: 0c83 213e 7b56 d9bd a06a fe3e ec04 d2be
00000130: d302 a43f 15b6 23bd e480 89be 0fc0 88be
00000140: 6974 05bf 1468 bdbe d350 d53e 684b 053d
00000150: 05d2 6cbf 43d3 bebd 8939 92be c18b d53f
00000160: 4187 e9be 0386 123e 2ddc 1c3f d990 a73d
00000170: 5a12 aa3e c53a 5c3e 4212 28bf 9506 61be
00000180: a121 6e3f 6207 493f ddaa 40be 48c4 bcbe
00000190: 8379 3b3f 73c0 353f 650e 41bf 85ec 043f
000001a0: cd16 98be c395 b7bd 0696 5dbe 7654 03bf
000001b0: c5df 70be 1aed b43e 5b95 4cbf f911 43bd
000001c0: 903e 37be 85ba 113f 2efd b23f 7541 e0be
000001d0: 2f42 32bf 1e1d bcbc 2547 8a3d a1f3 cf3e
000001e0: f7b0 3e3f c492 3d3e 6e6d e33d eaa3 c73c
000001f0: e5ad c3bc 0d11 193e f3ce 49bf f0ea 44bf
00000200: 4dbd 0e3f 0174 c3be 8071 17bc b0a4 f63c
00000210: c1f4 c4be 2c61 90be 1037 043e 09db d5bd
00000220: e86d 183e 3996 5ebe f590 27be 7a17 883f
00000230: 0fa3 643f e9da cc3f 5665 143d 4194 3ebe
00000240: 4727 44bd b479 51bf 0dab ee3d ce1f 67be
00000250: c33c 28be b9d4 61bf a92f a9bd 52cf 073d
00000260: 5ff9 a33e ff11 8e3f 1cb8 2c3f 3d8a 72be
00000270: ecac 5c3e 76fb 0ebf 1036 83bd f3e8 f83c
00000280: 09dd 5b3d fae5 b43e af79 c9be 1de2 103d
00000290: 9a29 ac3e 84b6 64bf 33c5 573e 6dc6 a53f
000002a0: 1bf9 9fbd fb9d c6bd 79e6 143e 0209 41bd
000002b0: 67ce 733e c41a 013e 4b74 acbe d8b3 47be
000002c0: 6587 dc3d 9e7b 64be febc 2c3f 72ce 68bf
000002d0: 9652 063d a912 da3e 198d 1b3d 642e d73e
000002e0: bda6 b83e 9b07 7b3e 549b f5bd fb5c 1abe
000002f0: fa8d 563e c9cd 633e 740a 293f 594f c13e
00000300: 40e8 58bf 6fa2 12c0 c7b0 15bf 6773 02be
00000310: ccb0 71be c597 9abd 898b 013c 16c2 59bc
00000320: cc7d 58bd 1b32 8cbe 5004 31be 0cc8 9bbd
00000330: 91d5 abbf f9c9 0240 304b 2b3f 47d0 3e3f
00000340: d9b4 0a3e f506 1c3d b5e5 0c3e 6508 94be
00000350: fc27 2f3e 9611 36bd b551 803e 391e f33d
00000360: d8f8 07be 61fd babf fc92 773f 155f b9bf
00000370: fb8f b3be cd1f 1b3f 5989 c73b 243b 383e
00000380: 8d9f 8bbe f0c3 7b3e 895d 10bf cb09 713e
00000390: 350e e73d db0d 363e e014 89bf bedc 2fbf
000003a0: c5ab 98be eb9b e13e 83c2 c63e 754a 60be
000003b0: b33b 953e ee31 6d3e b786 543e 73b5 223f
000003c0: 71bf edbe 3851 e43e 12d4 0b3d 5bef 4bbf
000003d0: 7dcf 283f fb85 27bf 776f 2fbe 7fa4 a4be
000003e0: ee3f b33e 7c95 09bd fee8 79be 20d3 793e
000003f0: c83a 783b f8cf 6c3d a44b a6bd e132 653e
0.03004267 0.28226504 -0.21697639 -0.122192085 -1.0086488 0.720497 1.2840333 0.5243031
0.1519108 -0.35719594 -0.43023792 -0.3367898 -0.04283442 -0.3843161 -0.12194539 -0.017151237
0.8966465 0.4288825 -0.43071035 -0.42986426 0.16633171 0.30247548 0.9895724 -0.17092465
0.037756875 0.12498243 0.46271342 -0.49142325 -0.26804128 -0.1112742 0.32456475 0.26675874
0.4544997 0.017410783 0.09995736 -0.7642069 -0.35092768 1.0066683 0.10537601 0.12304228
-0.27535164 -0.12913546 0.09725389 -0.5208112 -0.64248073 -0.8232769 0.1881566 0.18096007
-0.07090094 -0.06577024 1.2282839 0.33881584 0.2802404 0.0149058 0.3629954 -0.22952843
0.00058796484 -0.5264314 -0.20430684 -0.1020509 0.27226982 -0.2746833 -0.8850309 0.28805774
-0.107416764 0.052492976 -0.41708475 0.098354 0.26491377 0.4925396 -0.08178061 -0.15991578
0.15772647 -0.10612198 0.49690723 -0.4101938 1.2813362 -0.03996857 -0.26856148 -0.2670903
-0.5213075 -0.36993468 0.41663226 0.032542616 -0.92507964 -0.09317639 -0.2855952 1.6683275
-0.45611003 0.14308934 0.6127346 0.081819244 0.33217126 0.21506794 -0.6565286 -0.21975167
0.93020064 0.7852689 -0.18815179 -0.368685 0.7323229 0.7099678 -0.7541259 0.519234
-0.29704896 -0.08964112 -0.2163926 -0.5130075 -0.23522861 0.35337144 -0.799154 -0.047624562
-0.1789496 0.5692523 1.3983514 -0.4379994 -0.6963224 -0.022963103 0.06751851 0.40615562
0.74488777 0.18513018 0.111048564 0.024370153 -0.02388663 0.1494791 -0.78831404 -0.76920986
0.557576 -0.3817444 -0.009243369 0.030107826 -0.38467982 -0.28199136 0.1291163 -0.10442168
0.14885676 -0.21736993 -0.1636389 1.0632164 0.8931131 1.6004306 0.036229454 -0.18611242
-0.04788902 -0.8182633 0.11653719 -0.22570726 -0.16429429 -0.88215214 -0.082610436 0.0331567
0.32026193 1.1099242 0.6746843 -0.23685546 0.2155034 -0.5585245 -0.06406796 0.030384516
0.053677592 0.35331708 -0.3935065 0.03537189 0.3362549 -0.89340997 0.2107132 1.295118
-0.07811185 -0.09698101 0.14541043 -0.04712773 0.23809205 0.12607867 -0.33682474 -0.19502199
0.10768012 -0.22312781 0.6747588 -0.9094001 0.032793604 0.42592362 0.037976358 0.4202758
0.3606471 0.2451462 -0.11992517 -0.15074532 0.20952597 0.2224647 0.66031575 0.3775585
-0.84729385 -2.2911642 -0.58472866 -0.12739335 -0.23602599 -0.07548479 0.007906803 -0.013290903
-0.052854344 -0.27381977 -0.17286801 -0.07606515 -1.342455 2.0435774 0.669116 0.74536556
0.1354555 0.038092572 0.13759501 -0.28912655 0.17105097 -0.044450365 0.25062338 0.11870999
-0.1327852 -1.4608575 0.96708655 -1.4482142 -0.35070786 0.605954 0.006089371 0.1799131
-0.27270165 0.24586463 -0.56392723 0.23538892 0.11282007 0.17778723 -1.0709496 -0.686962
-0.2981855 0.44064268 0.38820276 -0.21903403 0.2914711 0.23163578 0.20754515 0.6355812
-0.4643512 0.44593215 0.034137793 -0.796621 0.659416 -0.6543881 -0.17132364 -0.3215675
0.35009712 -0.033589825 -0.24405286 0.24396944 0.0037876833 0.057815522 -0.08119896 0.2238269

fc1.bias f4 [256]
00000000: 939e 423e 09fd 42be 67c4 ae3e ebad 893e
00000010: 9919 95bc db10 c5be 5d4d 8abe 5709 b2ba
00000020: 59b5 923d 5102 893d 16ed c5bd 9b8c 4e3d
00000030: 11f3 ec3e aa32 d4bc 2015 2a3d 131a 80be
00000040: f7b3 09be e24f 373e d7cf ad3e ec24 953e
00000050: f210 95be 2ec5 583e ef80 f73d f0b0 7b3c
00000060: f940 efbd 4144 273e 2596 423e 2198 0bbc
00000070: 7d54 1abe 5db1 103f fe52 483e cf3e 123e
00000080: f98d 12be 405c c3be 595f 083e e6d7 953d
00000090: 02a0 d4be 8d8c 69be 9441 793e 605e d23d
000000a0: bead bd3c f8fc be3c 88ea 043d e0cf 8abe
000000b0: 1db5 38be 470f 1fbe d522 d73e 628b 4b3e
000000c0: ba62 f2bd 16c6 b53e 91d5 4ebd b76a abbe
000000d0: 18b8 2dbd 1c23 543e 8adc 9d3e c39f 11be
000000e0: a1ed bd3d 5775 3c3e 3ecf 433e d4eb 183e
000000f0: c458 aa3e 4c0f cd3e d1e7 06bd 4fe1 003f
00000100: 3384 7cbe 72bf cabd 0dd9 023e bca5 45be
00000110: 3da5 993d 8141 b43e 97d1 dbbd 1b61 173f
00000120: 21bb 183e 12f6 9abe c092 27be 5cb0 eebe
00000130: dc6d 9c3e b3aa 4c3e f4c6 363d 1702 7f3e
00000140: 94bf 86bd d34d 663e 8c0b 423e 4191 893e
00000150: e6ac 5fbd be56 863e 7c6d 16be 2f2c 153c
00000160: 9185 463e 920a 9abe 1c67 90be c620 57bd
00000170: 18f0 323c 7e0f 91bd 39ec 63be c6b5 93bd
00000180: 2aa0 7c3e eb4e c03e f1d7 4fbe 25c6 db3e
00000190: 80b7 703e fd0b 0aba bd4f 6cbe 69af 813e
000001a0: feee 9c3e cbef b73e bc4a bbbd dfb5 903e
000001b0: 3419 843d 675d 92be d6de afbe ba6e acbe
000001c0: 0aff 863e 4247 383e a3b0 88be 64ac 043e
000001d0: 983e bb3d 59ae 843e 1135 0ebd 456d 913a
000001e0: 46a6 b4be 22c7 b63e 38a9 c2be 17f5 b9be
000001f0: ea94 f4bd 110a 3f3e 7552 913d 9849 4e3e
00000200: f241 21bd 9b61 ffbd abdf 4dbe 2581 8cbd
00000210: 4003 90be 6aa4 9cbd 6d51 93be 1321 c9be
00000220: ebfb 00be dbd9 153e 91e0 66be e998 f4be
00000230: 5e2c 843e 31c2 d93e 7f6b a1be 1a8c f7be
00000240: 48f0 25be ccf0 c43d 6088 4a3d 9019 fcbd
00000250: 2173 4b3e 5fe9 88be e538 033e bbf6 863e
00000260: 393e fd3e e882 bc3d 3430 11bd 0301 2ebe
00000270: dae5 ed3e d59c 28be 9b08 febd ab5d d3be
00000280: badb 80be 010d c13d da40 22be 4712 30bd
00000290: 1581 25be 3ac8 3b3e a65e 9ebe 8d07 04be
000002a0: 499f 86be 8a4b 8f3e 40ce 64be d95d c53e
000002b0: b8bf 00be c6c0 94be e911 073e 8eb5 60bc
000002c0: e8e7 b2be e065 73bc 86fa 1abe 4237 8c3e
000002d0: fcaf 123d ba19 c1bc a049 c6be 80cd a73e
000002e0: 5cd0 0ebe 9219 17be 9168 3e3e 0b74 2dbc
000002f0: 0873 06be ea82 853e 72fb 663e d7a1 2a3e
00000300: bddc d23e f698 593e c082 b5be b1bf 81be
00000310: 7468 c03d fbaa 123e c991 353e 7a87 ad3d
00000320: 49ca a23e 805f 8dbc daba 4f3d edaa e1be
00000330: c14f 4bbd 755c 9c3e 3806 e93d c3ab c4be
00000340: f7c1 66be 09e5 3e3d 975f c6be 3618 47be
00000350: 6bc5 b1be 14cc 3b3e 93ad 373e 1930 dfbd
00000360: 3384 c43d 2b08 af3e 18bc 513e 7e37 543e
00000370: a2c5 8a3d bacf b13e 335c 763d bd27 98bd
00000380: 52e2 553e ee6a 96be 1617 a23d 0ae0 753e
00000390: 3951 a83e f662 b5bd 3559 c03d f447 9a3d
000003a0: 5cbb 3b3e a28b 8bbe 676f 42be 1a63 9c3e
000003b0: a751 863d b2c1 453e 1bdd 0a3e 8375 88be
000003c0: df72 8abe f648 76be bfa8 c4bd fbf3 3e3e
000003d0: b181 d2be 1ec8 c23e bd71 1ebe 0548 5abe
000003e0: e272 b73e 4197 793e 09db 9b3e c273 a53d
000003f0: ca0b 4bbd b34c ed3d c1a2 88bc 1477 5c3b
0.19005804 -0.19041838 0.34134218 0.268905 -0.018200682 -0.38489422 -0.27012148 -0.0013583106
0.071634956 0.06689895 -0.09664361 0.05042706 0.46279195 -0.025903065 0.041524053 -0.25019893
-0.13447557 0.17901567 0.33947632 0.29129732 -0.2911449 0.21168968 0.12085139 0.015362009
-0.116823144 0.1633463 0.19002588 -0.008520157 -0.15071292 0.56520635 0.19562909 0.14281772
-0.14311971 -0.3815632 0.13317622 0.0731657 -0.41528326 -0.22807522 0.24341422 0.10271907
0.023154136 0.023313984 0.03245023 -0.2711172 -0.18037839 -0.15533172 0.42018762 0.19877389
-0.11835237 0.3550269 -0.05049664 -0.33479854 -0.042411894 0.20716518 0.3083232 -0.142211
0.0927384 0.18404137 0.19122025 0.14933711 0.33270848 0.40050733 -0.03293592 0.50343794
-0.24659805 -0.098997965 0.12778111 -0.19301504 0.0750222 0.35206226 -0.107333355 0.59132546
0.14915134 -0.30265862 -0.16364574 -0.46618927 0.30552566 0.19986992 0.04462333 0.24903141
-0.065795094 0.22490625 0.18949717 0.26868632 -0.05460825 0.26238054 -0.14690202 0.0091047725
0.19386889 -0.3008619 -0.28203666 -0.05252149 0.010921501 -0.07083033 -0.2225808 -0.07212405
0.24670473 0.3756021 -0.20297219 0.4292461 0.235075 -0.00052660686 -0.23077293 0.2532914
0.30651087 0.35925135 -0.09145114 0.28263757 0.064501196 -0.28586885 -0.34349698 -0.33678228
0.26366454 0.17995933 -0.26697263 0.12956387 0.09142798 0.25914267 -0.034718577 0.0011095187
-0.35283107 0.356988 -0.3801973 -0.363198 -0.119424656 0.18656184 0.070958056 0.20145261
-0.03936953 -0.12469789 -0.20104854 -0.0686057 -0.2812748 -0.07648547 -0.2877306 -0.39283046
-0.12596099 0.14633887 -0.22546603 -0.4777291 0.258151 0.4253097 -0.31527326 -0.48349077
-0.16204941 0.09616241 0.049446464 -0.12309563 0.19868137 -0.26740548 0.12814672 0.26360115
0.49461535 0.09204656 -0.03544636 -0.16992573 0.46464425 -0.16466077 -0.12403985 -0.412824
-0.25167638 0.094263084 -0.15845051 -0.04298618 -0.16162522 0.18338099 -0.30931586 -0.12893505
-0.262934 0.2798732 -0.22344303 0.38548163 -0.12573135 -0.29053324 0.13190426 -0.013715161
-0.34942555 -0.014855832 -0.1513463 0.27385908 0.035812363 -0.023571838 -0.38728046 0.32773972
-0.1394667 -0.14755848 0.18594576 -0.010586749 -0.13129818 0.26076442 0.22556856 0.166633
0.41184035 0.21249756 -0.35451317 -0.2534156 0.09394923 0.14323036 0.17731394 0.08473106
0.31794956 -0.017257452 0.050715305 -0.4407572 -0.049636606 0.3053929 0.11378139 -0.38412294
-0.22534929 0.046605144 -0.38744804 -0.1944283 -0.3472093 0.18339568 0.17937307 -0.10897846
0.095955275 0.3418592 0.20481908 0.20724294 0.06775977 0.34728795 0.06014652 -0.074294545
0.20887116 -0.29378456 0.079145595 0.24011245 0.32874468 -0.08856766 0.09392015 0.07533255
0.1833319 -0.2725497 -0.18987809 0.30544358 0.06558543 0.1931217 0.13560908 -0.26652154
-0.27040765 -0.2405127 -0.09602498 0.18647759 -0.41114572 0.38043302 -0.15473075 -0.21316536
0.35829836 0.24374105 0.30440548 0.0807872 -0.04957179 0.11586895 -0.01667917 0.0033640312

fc2.weight f4 [256, 256]
00000000: d00f 8abf 50cf ebbd 3ef3 e6be 7ac8 35bd
00000010: 5ec0 94be 03cf 2dbe 1e52 97bd 6c4c 15bf
00000020: 37b8 c03e 0730 71bf 7471 b43e b741 ff3e
00000030: a660 e7be c553 9fbc 46fa 56bd a35d 0c3e
00000040: 69d0 29bc 7592 10bf ea1e dbbd fee6 a03e
00000050: 7b67 f23d 301a 82bc a99b 283d 4e7a 173f
00000060: 7a28 28be 2863 12bf 8792 60bf e0e8 123d
00000070: 0801 a43d 2003 4cbf 6179 2ebf 79ef c73e
00000080: 6b83 613e 1671 f9bd 152c 2f3f 250f 83be
00000090: 2692 3c3d 1d00 c33d d282 be3d f958 a6be
000000a0: 7644 04bf cbaa f63d ecd0 053d 3747 8fbe
000000b0: 4548 e0bd 220e 0a3f 1884 15bf 9f37 293f
000000c0: 70fd 82bd 2c9c 2f3f 2b1c 7fbf b39b 23be
000000d0: 1ebf 47bf a12d 543d 1fd2 613e 216f e63d
000000e0: 607d 7bbd 1dcf 56be f87a 90bf 58b2 3fbe
000000f0: 13b1 2ebd 1197 acbd c5b3 71bf af74 873e
00000100: 343a 813f 6ddc 853e c4ba 12be 364b 9fbe
00000110: 3bdb 683e 7a59 fbbc 7ed6 bebe 7b3f 04bc
00000120: be20 a5be 08d1 95bd 819c 18be c66c c53c
00000130: 070f 47be f626 8e3e e18a e1be 96e3 a13d
00000140: a869 ad3e b970 35be 0819 b43c c9c6 0dbd
00000150: cf85 10bf 9a6a 6c3e b34c 143e 7b37 73be
00000160: 016f 10ba a2d7 9a3e 7cb7 6cbd 1e80 df3d
00000170: 7d67 edbe f544 debd 9e90 dbbe 88fa 913e
00000180: 15f0 1abd 1b15 bbbf 4d9d b43d 2858 f73d
00000190: 4dd2 ce3e 7ad7 c73e f93d a2be 9f03 4ebb
000001a0: eb8c 40bf 184e c93d 9ee6 843e 70ef ca3e
000001b0: f787 323d cdf4 113e 35ad 643d 5787 2d3d
000001c0: 228b 913e 2e26 803e e1c1 25bd 722d a1be
000001d0: 266e 05be 627d a5bd 66d3 9abe 1375 c33e
000001e0: 28e3 ffbe 53d7 12bd cb6e 883e 2d42 5e3d
000001f0: 4117 63be 543d 00bf 966e 5b3e d85e 4fbe
00000200: bca5 063f 219f 58bd cd4a 3c3d 74f0 43be
00000210: 502c 30be ea7e 463e d856 64be ef2a b63d
00000220: 8f18 fbbd 8591 253f 2fcb fa3d 23ef 6bbd
00000230: 5555 f43e c39a a53e 717f eabe ab4e f7ba
00000240: 5be9 0b3e 9b59 84be 8d33 643c 64b9 353e
00000250: 6ca3 8bbe a516 79bf bde5 183e 309f acbe
00000260: eeac 063f 4551 a73e edf7 563e 37f4 2a3e
00000270: cc53 6ebe 8e5f e23c 38f6 2f3e fd31 723e
00000280: eee5 813e 84c8 c4bd 5f3a ad3d 47bd 46be
00000290: 922b 973e d430 b6bd 5730 673e 551c b93e
000002a0: 6ad0 4d3e 0f64 bf3c ea63 833e b044 81be
000002b0: bd30 b1be 74b4 363e d342 f3be 0441 a0be
000002c0: 01e5 913e 893e ac3e 2c66 d43e 66e3 c03d
000002d0: 7caf c6bc 783a bd3e a4b4 703e 0f8f 24be
000002e0: e7ff 363f 514b dabe 809e 013d 68f2 ea3d
000002f0: 0d80 5f3d 0f1c 843e cb51 8ebe ca2b a13e
00000300: b680 643e 684a 793e 8918 283d e70f aabc
00000310: 59c3 6abe 2db1 ed3e aec0 7abe 70bb 8cbe
00000320: 1831 73bf fb90 76bf 7fde 81bd ee4d 993d
00000330: 6f38 98bd 3f2a 22bf 4c96 1ebf 4ab4 dfbe
00000340: cad6 203e faa0 ff3e dfdd 423d fa72 a53e
00000350: b43d 3dbf 710c 15bd e2ea ac3e 0db7 37be
00000360: 0b30 1cbe df11 d1be 062e 37bf 0d90 31bf
00000370: 994f 373d 2e61 41bf 6eb1 6b3e 2e78 ba3e
00000380: 25d1 4fbc 099d 52bd 06bf 7bbf 377c 003f
00000390: 787a 15bf 5a2f 8a3e f6cf 36bf c41f 0cbf
000003a0: eabc aabe 9ccc 57bd 75e3 4fbf 3a2e ee3d
000003b0: 4465 063d 343e 36bc a607 1b3e 4c03 493d
000003c0: b8a8 42bf 2608 613e 8792 523e 3710 bf3e
000003d0: 88e4 b13c bc64 3abf 274e e6bd 6cf3 0abf
000003e0: 353b 823e 4c06 6ebf 08de 2abe 31af cc3e
000003f0: 461b d73e 463d 643e 6d09 95bd 15ac aabe
-1.0786076 -0.11514151 -0.45107454 -0.044380642 -0.29053015 -0.169735 -0.073887095 -0.58319736
0.37640545 -0.9421391 0.35242808 0.49854824 -0.45190924 -0.019449124 -0.052484773 0.13707595
-0.01036463 -0.56473476 -0.10699256 0.31426233 0.118361436 -0.015881628 0.041164074 0.59171
-0.1642169 -0.5718255 -0.87723583 0.03586662 0.08008009 -0.7969227 -0.6815396 0.3904989
0.22022788 -0.121797726 0.6842664 -0.25597492 0.046037816 0.09521506 0.09302296 -0.32489756
-0.51666963 0.12044295 0.032669947 -0.2798402 -0.10951284 0.53927815 -0.58404684 0.66100496
-0.063959956 0.68597674 -0.99652356 -0.15977363 -0.78025997 0.051801328 0.22052811 0.11251665
-0.061398864 -0.20977445 -1.1287527 -0.18720376 -0.04264934 -0.08427251 -0.9441493 0.2645621
1.0095887 0.26144734 -0.14329058 -0.3111207 0.2273988 -0.030682314 -0.3727302 -0.008071776
-0.32251543 -0.0731526 -0.14903452 0.024099719 -0.19439326 0.277641 -0.4405127 0.07904737
0.33869672 -0.17718782 0.021984592 -0.034613404 -0.56454176 0.2308754 0.14482383 -0.23751633
-0.0005509705 0.3024264 -0.05779217 0.10913108 -0.46368018 -0.10852996 -0.42883772 0.28511453
-0.037826616 -1.4615816 0.08819065 0.12077361 0.40394822 0.39031583 -0.31687906 -0.0031435264
-0.75215024 0.09829348 0.25957197 0.396358 0.043586697 0.1425354 0.055829246 0.0423654
0.28426462 0.2502913 -0.0404681 -0.31479985 -0.130303 -0.080805555 -0.3023941 0.38175258
-0.49977994 -0.03584988 0.26647028 0.05426233 -0.2217684 -0.5009358 0.21428904 -0.20251024
0.5259664 -0.052886132 0.045969773 -0.19134694 -0.17204404 0.19384351 -0.22298753 0.08894908
-0.122605436 0.6467517 0.122457854 -0.057601105 0.47721353 0.32344636 -0.45800355 -0.0018868049
0.13663237 -0.25849614 0.013928306 0.17746502 -0.27273118 -0.9730018 0.14931388 -0.337152
0.5260762 0.3267919 0.20993014 0.16694723 -0.23274153 0.027633455 0.17183769 0.23651882
0.25370735 -0.09608558 0.08458399 -0.19408141 0.2952543 -0.08896032 0.22577034 0.36154428
0.20099035 0.023363141 0.25662166 -0.25247717 -0.34607497 0.17842275 -0.4751192 -0.31299603
0.2849503 0.3364146 0.414842 0.09418373 -0.0242536 0.3695867 0.23506409 -0.16070198
0.71484226 -0.42635587 0.031645298 0.114720166 0.054565478 0.25802657 -0.27796778 0.3147872
0.22314724 0.2434479 0.041039024 -0.020759536 -0.22926082 0.46424237 -0.24487564 -0.27486753
-0.94996786 -0.9631497 -0.06341266 0.07485567 -0.07432639 -0.6334571 -0.61948085 -0.43692237
0.15706936 0.49927503 0.047574874 0.32314283 -0.73922276 -0.03638882 0.3377295 -0.17940922
-0.15252702 -0.40833947 -0.715546 -0.6936043 0.044753645 -0.7553891 0.23016903 0.36419815
-0.012684141 -0.05141929 -0.98338354 0.50189537 -0.5839 0.2698925 -0.71411073 -0.5473597
-0.33347255 -0.052685365 -0.81206447 0.11629911 0.03281142 -0.011123229 0.15139636 0.04907541
-0.76038694 0.21975765 0.20563708 0.37317058 0.021715418 -0.7280996 -0.11245375 -0.5427768
0.25435796 -0.9297836 -0.1668626 0.3997741 0.42012995 0.22288999 -0.072771885 -0.33334413

fc2.bias f4 [256]
00000000: 2ffe 2a3e 2106 b63c ec82 fb3d 9e96 d13d
00000010: f992 d8bb 39cf b93c 08b2 36be 4dc3 863c
00000020: c316 96bd 963b 1cbe 0d0e 90bb ab57 ffba
00000030: 11c0 9d3d 0f1d eb3c 93e5 f0bc bbb7 903d
00000040: 5718 8fbc 6d62 213d 5c7b d5be 9f38 56bc
00000050: 483a 66bd 3b31 343d 3fac 543d 578f bfbc
00000060: 1891 e43d 3942 d63b 1f7c 1b3d 0968 cf3d
00000070: 4dba afbd 69ed b3bd 47ec ebbd 5da3 50bc
00000080: d27e 7d3e ba67 29be 7b98 073d 39e7 86bc
00000090: e75b 37bd daf1 fd3b 66f2 4f3c 5f3e 7e3e
000000a0: 18b3 323d 4e7a febd 2e1d 58bd 15ec 913d
000000b0: 2608 e93c 89f8 66bb f6f4 283e bdd5 163e
000000c0: 0343 51bd e98e 273d 2be0 33be cae1 543e
000000d0: e71b ccbd 2ef1 4d3e 18ae f63d feab 5b3d
000000e0: b068 3cbe a4a3 5bbe 6f54 cdbd 9203 e53a
000000f0: f8dd d13d 1c84 543d 7ff8 bd3c 9efe cebd
00000100: 31a5 093e 29be 733e e916 84bd 9cd8 ee3a
00000110: 5eb3 623d d5d0 1a3e a69e 2bbb ac3c b53d
00000120: 217a 8d3c 8abe 1cbe 2e1a 773d 8531 083e
00000130: 8810 113e a520 0dbe 2a22 63bc 4266 c73c
00000140: eb50 19be da25 e83d 6d92 c53d 5398 163e
00000150: 0ae1 d2bd f643 d93c 73c7 b53c 797e aabd
00000160: 6cc8 70be 6bb2 763d 883e 673d c794 87be
00000170: 9bac bbbd 9317 a63c 6e79 96bd a6b2 ff3c
00000180: e16a dd3d cdf5 81be 6376 aa3d 33d8 fd3c
00000190: 351c f2bd 84c8 dd3c 7e72 0dbe 8fac 0d3e
000001a0: bdf6 5e3d a7e4 fc3d 42d3 6abe cd79 863d
000001b0: a866 77bd 482e bc3d d818 05bc 7b03 ccbd
000001c0: 87f7 a83b 1687 35bd 9369 99bd 7a68 65bd
000001d0: 5019 4a3d 9ca2 813d 20b1 b9bd 77c7 94bc
000001e0: 54e1 07bd 3a8f 343d 1039 a23c b15f e1bb
000001f0: f27e 8bbe 76b0 ffbc 4119 08be b31a 2abe
00000200: 0ebc d63d 4da6 49bd ecc9 8c3d 7d88 bdbd
00000210: 70ec 5fbd 3d6b adbd 66b3 943d 9398 593c
00000220: 9720 733e fd46 0abe 5469 883e 01de 60be
00000230: 5bde 4e3e d896 543d b61d b9bc 8919 013d
00000240: c807 123d 40d7 9abc f228 f33c 99cd 103e
00000250: 6cd1 04bd 2ae8 a83b fde2 463c c789 043e
00000260: 5206 59be 3b81 37be 9323 33be 4527 4f3e
00000270: 02f1 49be 9b66 d8bd 1f91 69bb c724 b93c
00000280: 510a f13b 4590 76bc 3e68 823d d75e 073e
00000290: 1067 c6bd 8cca a93d a44f a23c 180b c23d
000002a0: fcc1 c1bc cc0a 1cbe 568f 0e3e b1e3 173d
000002b0: 8f9a 793c 0f77 373d 66f2 7ebd 4855 83bc
000002c0: 4ec9 0e3d 61dc 70be b648 cc3d 3b7f 9fbc
000002d0: 412e f13c 9458 cabc e643 da3d d713 d13d
000002e0: 3b04 88bd 3e80 e23d fd27 84bd 27ea 623e
000002f0: cbd2 61bd b58d f8bb ded1 0f3e 4a1e 4f3e
00000300: 1f2c 9cbd 870b a83c a465 64be 4429 8c3e
00000310: 8449 19be bae9 0e3e b4aa a7bd 40eb 4dbd
00000320: d74a 773d 0426 1739 1c80 41be 4412 c4bc
00000330: 738e 0f3d 0dda ca3d 64a9 82be cfee 8abe
00000340: 3b06 813c dff3 8ebd 92cf b9bd af00 eabd
00000350: 7a0d 253e 2adc 5ebe f3dc 7c3d 27b9 93bd
00000360: 309f c83c 439e adbc 465b d03c e23c f53d
00000370: 363f ce3d 64a1 fd3b a7d8 433e 6a07 2abd
00000380: 747b a8bc 55a6 bdbd b799 b1bd 1dd3 71bd
00000390: 3a2e fe3d 17e5 7d3e ccbc 9bbd 1eac 10bc
000003a0: b226 053d 70c0 38bd d2ab 13be ae0d 31bc
000003b0: 1c25 283d 310d 27bc 1f12 45bd c5cf 41bc
000003c0: 0a71 e2bb 8ed8 78bc b72d 96be 1ea1 0ebe
000003d0: 86e0 a13d f826 05bd 5d81 1abd 5983 4dbd
000003e0: 2781 953c a853 e33d 34f9 6d3c 3850 2f3d
000003f0: 10ab 0fbe 67b7 c3bd 517f ccbc 8f68 e73c
0.16698526 0.02221972 0.12280831 0.10233806 -0.0066093174 0.02268182 -0.17841351 0.016450549
-0.0732856 -0.15257105 -0.0043962062 -0.0019481083 0.077026494 0.02870038 -0.029406345 0.07066294
-0.01746766 0.039400507 -0.41695678 -0.013075023 -0.056207925 0.043992262 0.05192208 -0.02338378
0.11160487 0.006538656 0.037960168 0.10127265 -0.08580456 -0.08785517 -0.11519676 -0.012734261
0.2475541 -0.16543475 0.0331044 -0.016467677 -0.04476538 0.007749778 0.01269207 0.2482848
0.04362783 -0.124256715 -0.052762203 0.07125107 0.028446268 -0.0035243353 0.16499695 0.14729972
-0.051089298 0.040907774 -0.17565982 0.20789257 -0.099662594 0.20111534 0.120449245 0.05363082
-0.1839931 -0.21449143 -0.1002587 0.0017472378 0.10247415 0.0518838 0.023189781 -0.10107158
0.13441922 0.23803009 -0.06449682 0.0018222514 0.05534684 0.15118726 -0.002618709 0.08849463
0.01727015 -0.1530706 0.0603277 0.1330014 0.14166462 -0.13781984 -0.013863126 0.024340753
-0.14972274 0.113353446 0.09647069 0.14706545 -0.10296829 0.026521664 0.022189831 -0.08324904
-0.23513955 0.060228746 0.05645612 -0.26480696 -0.09163781 0.020274913 -0.073473796 0.031213116
0.10811401 -0.25382844 0.08323362 0.03098688 -0.11821786 0.027073152 -0.13813207 0.13835357
0.054434527 0.123482995 -0.22932151 0.065662004 -0.060400635 0.09188515 -0.008123599 -0.09961601
0.0051564607 -0.04431828 -0.0749084 -0.05600784 0.049340546 0.063298434 -0.09066987 -0.018161518
-0.033173874 0.044081904 0.0198026 -0.0068778624 -0.2724529 -0.031212073 -0.13290884 -0.16611747
0.10485087 -0.049230862 0.06874451 -0.09254549 -0.054668844 -0.0846772 0.0726078 0.013281005
0.23742901 -0.13503642 0.2664286 -0.21959688 0.2020201 0.05190167 -0.022597175 0.031518493
0.035651952 -0.018901467 0.02968261 0.1414093 -0.032426283 0.0051546292 0.012139079 0.12943183
-0.21193817 -0.17920391 -0.17494039 0.20229824 -0.19720843 -0.105664454 -0.0035639477 0.022600545
0.007355966 -0.015049045 0.06367539 0.13219772 -0.09687626 0.08290586 0.019813366 0.09474772
-0.02365207 -0.15238494 0.13921866 0.037082378 0.015234604 0.044791277 -0.062242888 -0.016031876
0.034859948 -0.23521568 0.09974806 -0.019469848 0.029441 -0.02470044 0.10657482 0.10208862
-0.06641432 0.110596165 -0.0645294 0.22159635 -0.05513267 -0.007585252 0.14044902 0.20226398
-0.07625603 0.02051331 -0.22304398 0.27375233 -0.1496945 0.13956347 -0.08186856 -0.05027318
0.060374107 0.00014414644 -0.18896526 -0.023934491 0.03504796 0.09904871 -0.2551986 -0.27135321
0.015750041 -0.069801085 -0.09072794 -0.11425912 0.16118422 -0.21763673 0.06173415 -0.072130494
0.024489969 -0.02119363 0.025434148 0.11974503 0.1007065 0.0077401865 0.19125615 -0.041510977
-0.02056668 -0.09260241 -0.08671897 -0.059039224 0.12411161 0.24794422 -0.076043695 -0.008830098
0.032507606 -0.045105398 -0.14421013 -0.010806484 0.041051015 -0.010196016 -0.048112985 -0.011829321
-0.006910448 -0.015188349 -0.29331753 -0.13928649 0.079041526 -0.032507867 -0.037721027 -0.05017409
0.018250061 0.110999405 0.014524747 0.042801112 -0.14030099 -0.095564656 -0.024963053 0.0282481

fc3.weight f4 [6, 256]
00000000: 42f9 88bf 7a30 fbbd 84bf 8dbe 6536 5c3e
00000010: eeb6 c4be 92fa 073d 2894 46bf a880 14bd
00000020: 4dab 603f fc1a 39bf d523 a13d 9579 0cbd
00000030: 60a7 113f c990 c9bf ecee 8fbf e5d7 b63e
00000040: 9ea7 f8bb cddf 7cbe 272b 243f 6a8e c7be
00000050: d7ad 863d a18a aebd 418f 533e fa6d 9b3c
00000060: 2800 eebe 53c1 283e 3edf 623e e654 abbc
00000070: e363 ed3d 065d b53d b53b 8bbe db20 70bf
00000080: 0060 1bbe 82e4 3f3f 6402 fd3e aee1 10bc
00000090: 1701 c7bc dba0 68bd bb26 99bc 0823 1ebe
000000a0: 5a2d 9c3e 8514 85bd efd9 633e f4b6 36bf
000000b0: b74b a33c 1f37 5ebe c3e6 1a3e 2d03 96bd
000000c0: 7b6f b03f cb94 86bc f236 85bf 83ca d8be
000000d0: bd39 25bf 163c 79be 0d2f b53f 44c6 4f3f
000000e0: 9f02 2cbe 0805 62bf 9c48 4fbe 0fb7 e43e
000000f0: f53b a1bf 0e5b 16bd c458 61bd 5c40 e2bc
00000100: 0100 993d 2e22 463e ca21 a4be 13d7 f93e
00000110: 8c47 523f e406 d73d 0f37 8ebf b686 a53e
00000120: 9ec1 0fbf 507d a8be e71d 5bbe f5ba 0e3f
00000130: 54e5 50be ed72 063f 8a36 2a3e ddc1 233f
00000140: 630c 8b3d 62c1 2d3d 3cdf 773e ba5e 07bf
00000150: 034d 1bbf 1ded 0f3e 16cf a73f c1cc a63e
00000160: 969d 4b3f e6e8 c03e bb1a 84be cc67 803f
00000170: b6b3 433e d6a1 0e3f 6d3f 093f e77f 09bf
00000180: 04d2 d93d 5f57 17bf ca50 ef3c 58e6 923e
00000190: 1b59 bc3e c2f9 c2be ace0 873e aae2 88bf
000001a0: 03b7 17bf 1917 dcbd 3dd7 7b3f a634 8abf
000001b0: 2647 97bf 9b1b 8abf a753 32bd 0f81 28bf
000001c0: 13b7 193c 5158 cf3f 3cf2 10bf 38a7 d73e
000001d0: 4709 67bb c1e8 8e3c 4a2b 0dbf 4ac3 cc3e
000001e0: 74d1 00bd 3c15 c0be 2d5f 04be 89d9 ce3a
000001f0: 18e2 823e 4b94 45bc 51c9 f3be f0f5 51bf
00000200: 1830 c53e 1843 113b 1cc2 52bf c7dd e1bc
00000210: 1560 a23d 11bd 163f c6e8 c5be 0d1b df3e
00000220: 92e6 a33d 0d56 c3bd 408e 433e c589 a33f
00000230: 9978 003f e01a 64bd dba4 d33e 56bf 5fbe
00000240: 9c4b 433e b3d6 4ebd 3ce8 cfbe 5941 33bf
00000250: 78d0 933f f6c2 a9be a7ea 1d3f 59a8 2f3f
00000260: 1d76 6f3e 2f6b 2b3e 6d9d 303e de71 8d3e
00000270: 8de8 cb3d eed3 49be 8e66 913f 7c1d 8e3d
00000280: 550d 363f b8d9 0b3d 9b2f 043e 1a7d 1fbd
00000290: 787f 0b3f b7c0 4abf 879e 643d a208 343f
000002a0: b4cc 9f3f a681 84bf 40d6 3340 9281 bb3d
000002b0: 89a7 2c3d be31 133f 5996 103f 783e 783d
000002c0: 4b69 52be 4789 873e 61cd 32bd 10ec 55be
000002d0: 1f87 dfbd 7349 30bf 228a a0be 78fb c2be
000002e0: 0e4e 2fbf c1ad 11bf 77b1 ec3c 8df1 7dbf
000002f0: 9301 3c3f abcc fbbd 7ea0 913f d689 a73e
00000300: fd4f c4be 901e a5be e8f7 c83f 7515 38bf
00000310: 52f4 36bf 921f 9a3e c5e7 8e3d 6e3e a7bc
00000320: 09f7 063e 459d 073f 3761 4b3e e3c8 9dbe
00000330: d8af 2fbe 24b2 40be b0fd 3f3c 5ca7 683e
00000340: 45cc ae3b 912c a3b9 2094 c3be aa28 bfbd
00000350: 31cb d4be 395a e93e a778 7e3d 8746 ac3e
00000360: 8333 df3d c543 533d 6007 dc3c 70fc 13bf
00000370: 521e febe a24a e7bd ff94 9abf fdcb 49bd
00000380: f114 f1bd 1927 81bf 9c93 8d3f 6f6f 1c3f
00000390: d9a5 6ebc 0566 c93e 9a3d 363f b227 97ba
000003a0: 2c75 993f a4a8 003f 3a8d ab3e c25b 91bc
000003b0: d06d 8c3d 00ac b7be 7326 3d3e e5fa 723f
000003c0: 7194 e8bc d04b f1bb ae4a 53be 3de0 aabe
000003d0: bb03 653d 5564 85bd 86d9 24bf a389 203e
000003e0: 3d5b 03bf c771 a13c d305 ffbd 7ca3 483d
000003f0: e191 ffbe 6145 52be 4b56 313c aeda 77bf
-1.0701067 -0.122651055 -0.27685177 0.21505125 -0.38420814 0.033197947 -0.7756982 -0.03625551
0.87761384 -0.723068 0.078681625 -0.034295637 0.5689602 -1.574731 -1.1244788 0.3571159
-0.007588341 -0.24694748 0.64128345 -0.3897584 0.06576126 -0.08522535 0.20660116 0.01897334
-0.46484494 0.16479997 0.22155473 -0.020914506 0.115913175 0.088556334 -0.2719399 -0.93800133
-0.1517334 0.7495805 0.49415886 -0.008842869 -0.024292512 -0.05679403 -0.018695226 -0.15443051
0.3050335 -0.064980544 0.22251104 -0.71372914 0.019933565 -0.21700715 0.15127091 -0.073248245
1.3784021 -0.016428372 -1.0407393 -0.42342004 -0.64541227 -0.24339327 1.4154984 0.81161904
-0.16797875 -0.8828893 -0.20242542 0.44670913 -1.2596422 -0.03670793 -0.055016294 -0.02761858
0.07470704 0.19348976 -0.3205703 0.487969 0.8214042 0.10499361 -1.1110553 0.3232934
-0.5615481 -0.32908106 -0.21398126 0.55754024 -0.20399982 0.5251911 0.16622368 0.63967687
0.06789472 0.042420752 0.24206251 -0.52878916 -0.60664386 0.14055295 1.3110073 0.3257809
0.7953733 0.37677687 -0.25801644 1.0031676 0.19111523 0.5571569 0.53612405 -0.5371079
0.106357604 -0.5911769 0.029213328 0.28691363 0.36786732 -0.38081175 0.265386 -1.0694172
-0.5926363 -0.10746593 0.983753 -1.0797317 -1.1818588 -1.0789675 -0.04353681 -0.6582193
0.009382027 1.6198827 -0.5661962 0.42119765 -0.0035253332 0.01744497 -0.5514418 0.39992744
-0.03144975 -0.375162 -0.12926932 0.0015781383 0.2556312 -0.012059282 -0.4761453 -0.82015896
0.38513255 0.0022165235 -0.8232744 -0.027571572 0.079284824 0.5888224 -0.38654155 0.43575326
0.08002962 -0.09537897 0.19097233 1.2776419 0.5018402 -0.055689692 0.41336712 -0.21850333
0.19071811 -0.050497722 -0.40606868 -0.7002159 1.1547995 -0.33156556 0.61686176 0.68616253
0.233849 0.16740106 0.17247553 0.27625936 0.09956465 -0.19709751 1.1359422 0.069392174
0.71114093 0.03414318 0.12908785 -0.038937666 0.54491377 -0.7920031 0.055815246 0.7032567
1.2484345 -1.0352066 2.8099518 0.09155573 0.04215196 0.57497776 0.5647941 0.06060645
-0.20547979 0.26471922 -0.043652896 -0.20890832 -0.10914444 -0.68862075 -0.31355387 -0.3808248
-0.68478477 -0.5690575 0.028893216 -0.991967 0.734399 -0.12294897 1.1377103 0.32722348
-0.38342276 -0.3224988 1.5700655 -0.7190774 -0.71466553 0.3010221 0.069778 -0.020415511
0.13180174 0.5297435 0.19861303 -0.30817327 -0.17156923 -0.18817955 0.011718199 0.22720093
0.0053344094 -0.00031122987 -0.38198948 -0.09333928 -0.41561273 0.45576647 0.06212678 0.33647558
0.10898497 0.051578302 0.026858985 -0.57807064 -0.49632508 -0.11293532 -1.207672 -0.049266804
-0.117715724 -1.0090057 1.1060672 0.61107534 -0.014565908 0.39335647 0.71187747 -0.0011532216
1.1988883 0.50257325 0.33506185 -0.017743949 0.068568826 -0.35873413 0.18471698 0.94914085
-0.028391095 -0.007363774 -0.20633957 -0.33374205 0.05591176 -0.065132774 -0.64394414 0.15677504
-0.51311094 0.019707574 -0.12452283 0.048984036 -0.49915984 -0.20534278 0.0108237965 -0.96818054

fc3.bias f4 [6]
00000000: f851 653d 8bb8 923d e078 38bc 7579 2bbd
00000010: ae66 27bc f4e8 4d3d
0.055986375 0.07164105 -0.011259288 -0.041863877 -0.010217352 0.05027099
